LPDNet_usa_pruned_tao5.onnx (onnx, 936569 bytes, 87 tensors)

output_cov/kernel/read__94 f4 [1, 80, 1, 1]
0	0x372be137	1.0244831e-05
1	0x3760c96b	1.3398337e-05
2	0x38bea515	9.090655e-05
3	0x34d271b3	3.9198275e-07
4	0x38a10399	7.677748e-05
5	0x3b8a4a82	0.004220308
6	0x3ee1fe50	0.44139338
7	0x37a2eea2	1.9423027e-05
8	0x35e2d6db	1.6900843e-06
9	0xb715c69e	-8.927336e-06
10	0x3724db87	9.826274e-06
11	0x38bb12d1	8.92036e-05
12	0x389ff320	7.6269964e-05
13	0x3e6802e3	0.22657351
14	0xbd9b08c5	-0.07570032
15	0x338c662e	6.5378444e-08
16	0xb4104b9e	-1.3438554e-07
17	0xb869e83c	-5.5767814e-05
18	0xb4b297a2	-3.326541e-07
19	0xb82c6d4a	-4.110978e-05
20	0x383e64ce	4.539341e-05
21	0x37adb0a2	2.0705458e-05
22	0xbd1b4461	-0.037907008
23	0x37afc0f2	2.0951473e-05
24	0xbf2907b4	-0.6602738
25	0xbe05db8a	-0.13072029
26	0xc04d5aa1	-3.2086565
27	0xb521e8de	-6.031604e-07
28	0x381a6708	3.6812417e-05
29	0xbf308c73	-0.6896431
30	0xbfafa228	-1.3721361
31	0x37e65baa	2.7460821e-05
32	0xb7aa6571	-2.0312817e-05
33	0x378d1e5e	1.682265e-05
34	0x345012a0	1.9378285e-07
35	0x35521743	7.8264947e-07
36	0x34e12a00	4.1940075e-07
37	0x383bccf5	4.4775155e-05
38	0x3eeb57e1	0.45965484
39	0xb2301340	-1.0248925e-08
40	0x34843858	2.4627911e-07
41	0xbf6d99b8	-0.9281268
42	0x3f164808	0.5870366
43	0xbb0b50e2	-0.0021257927
44	0xbf54cf67	-0.8312897
45	0xb8633b61	-5.417632e-05
46	0x3698cba6	4.553661e-06
47	0xb0ff1f80	-1.8562645e-09
48	0x3ea6e98f	0.32600066
49	0xbf644c28	-0.89178705
50	0xb7b6d7e3	-2.179662e-05
51	0xb957ce49	-0.00020580845
52	0xbe6a9af1	-0.22910668
53	0xb83d7a99	-4.517529e-05
54	0x342dbc37	1.6180353e-07
55	0xbe0282c5	-0.12745197
56	0xbe7c4a1c	-0.24637645
57	0x33b893b4	8.595035e-08
58	0xb8ccbd02	-9.7626835e-05
59	0x3f93b747	1.1540307
60	0x37a4f97f	1.9666504e-05
61	0x3c1127eb	0.008859615
62	0xb7f7797f	-2.950127e-05
63	0x3618051e	2.2652744e-06
64	0xbf673864	-0.9032042
65	0xbf15d1f3	-0.5852348
66	0x3489b834	2.5652264e-07
67	0xb4157d60	-1.3922318e-07
68	0xb92c65b9	-0.00016441093
69	0xbe64f339	-0.22358407
70	0xbe7e11e7	-0.24811517
71	0xb74551e7	-1.1761184e-05
72	0xbf4af095	-0.7927335
73	0x33ebc042	1.0978012e-07
74	0x3c352189	0.011055359
75	0x38816d52	6.171562e-05
76	0x38c77a20	9.511807e-05
77	0xbd3a1e97	-0.04543933
78	0x37caa2ff	2.4156177e-05
79	0x387c8cbc	6.021255e-05

output_bbox/kernel/read__92 f4 [4, 80, 1, 1]
0	0x3ceccddc	0.028906755
1	0x3d5b7faf	0.053588565
2	0x3c1df0bf	0.009639918
3	0x35828440	9.724245e-07
4	0x3d073c94	0.033016756
5	0x3cf7136f	0.030160634
6	0x3de7848a	0.11304577
7	0x39cb296c	0.0003875004
8	0x3eaf6af3	0.34261283
9	0xbbcacb70	-0.0061888024
10	0x3c91fbc9	0.017820256
11	0x3c72720e	0.014797701
12	0x3d28275a	0.041053154
13	0x3ace7677	0.0015751858
14	0xbbb02649	-0.0053756577
15	0xb463d92a	-2.1220026e-07
16	0xbcc5f280	-0.024163485
17	0xbc11b3b2	-0.00889294
18	0x396f6786	0.00022831382
19	0x3e82fc28	0.25583005
20	0x3cae1e5c	0.02125471
21	0xbc1ab3ee	-0.009442313
22	0xbb7ced6a	-0.0038593658
23	0x3d0c4730	0.034247577
24	0xbcc11081	-0.02356744
25	0xbd69dfec	-0.057098314
26	0xbc7ec70d	-0.015550387
27	0x38a43395	7.829737e-05
28	0x3ca5e9b9	0.02025305
29	0xba398e2d	-0.0007078376
30	0xbbf65061	-0.007516906
31	0x3cd70c95	0.026251117
32	0x3b83317c	0.0040037017
33	0x3c6e68fe	0.014551399
34	0x38cafa40	9.678723e-05
35	0x38031feb	3.126256e-05
36	0xbbc7d7c8	-0.006098721
37	0x3b838aed	0.004014364
38	0x3dbf0c57	0.093285255
39	0xbbcfdfb5	-0.0063438066
40	0xb6def2c5	-6.6443777e-06
41	0x3cd8ea5b	0.026478937
42	0x3d9a53a8	0.075354874
43	0x3e7a9845	0.24472149
44	0xbb15169e	-0.0022749077
45	0xbcfadecd	-0.030623818
46	0x39b4e49f	0.0003450261
47	0xb4bbe5b1	-3.4998587e-07
48	0x3ebc034a	0.3672126
49	0x3ce16a5f	0.027516542
50	0xbd78e052	-0.060760804
51	0x3e8f9f0c	0.2805103
52	0x3ca1dccd	0.019758606
53	0xbc85fed5	-0.016356865
54	0x3a008af8	0.00049035205
55	0xbd654b2f	-0.055979904
56	0xbe1461ae	-0.14490387
57	0xb4808860	-2.3941084e-07
58	0x3eaa8ec1	0.33312038
59	0x3d44442f	0.047916587
60	0x3db5f6a8	0.088849366
61	0x3d757533	0.059926223
62	0x3bac2877	0.005253847
63	0x3ab28ffb	0.0013623232
64	0xbb91332a	-0.004431148
65	0x39bd3f0f	0.00036095871
66	0x3b972600	0.0046126842
67	0xbafe439e	-0.0019398814
68	0x3e7b499b	0.24539797
69	0xbbb5e3ad	-0.0055508227
70	0x3e964b34	0.2935425
71	0xbcfab465	-0.030603597
72	0x3b93e23e	0.004513054
73	0x3bdf5498	0.0068155043
74	0x3ddcee09	0.10787589
75	0x3d81c59e	0.063365206
76	0x3c730118	0.014831804
77	0x3b0fbc42	0.0021932279
78	0xbb5ac9fa	-0.0033384548
79	0x3a5ec93d	0.0008498615
80	0x3d667735	0.05626603
81	0x3e8b4ec6	0.27208537
82	0x3cae7b7e	0.02129912
83	0xb56d9a29	-8.851371e-07
84	0x3d33cea1	0.04389823
85	0x3e282b10	0.16422677
86	0x3d9af8d5	0.07566992
87	0xba484d8f	-0.00076409517
88	0x3c88e34f	0.016709952
89	0x3b4701e2	0.0030366112
90	0x3e94ff4b	0.29101023
91	0x3d5a714f	0.053330716
92	0x3c93f45f	0.018060861
93	0x3cfc883f	0.030826686
94	0x3e1f1506	0.15535364
95	0xb32e3657	-4.0561954e-08
96	0x3c18012d	0.009277624
97	0xbe174eef	-0.14776205
98	0xbb455926	-0.003011295
99	0x3b3cdbca	0.0028817528
100	0xbc38d4c3	-0.011281195
101	0xbcc1bf53	-0.0236508
102	0x3c43b0e5	0.01194403
103	0x3a90b765	0.0011040984
104	0x3d9a791d	0.07542632
105	0xbc1b35fb	-0.009473319
106	0xbc0cf021	-0.008602173
107	0x398b0924	0.00026518956
108	0x3c57d2a0	0.0131727755
109	0xbbfcddb4	-0.0077168588
110	0x3ca82392	0.020524774
111	0xbb385591	-0.0028127173
112	0xbb78d6d1	-0.0037969837
113	0x3b4f879d	0.0031666525
114	0x37c3581d	2.3286842e-05
115	0xbaa0b36c	-0.0012260503
116	0xba8c45b9	-0.0010701931
117	0xbcc1270b	-0.023578187
118	0x3e4868e9	0.1957127
119	0xbb833246	-0.004003796
120	0xb6d13604	-6.2349736e-06
121	0xbbabc56a	-0.0052420394
122	0xbdb10d84	-0.08645156
123	0x3b920919	0.004456651
124	0xbbb8221c	-0.0056193005
125	0xbe0191da	-0.12653294
126	0xba51f520	-0.0008009244
127	0xb41b69b3	-1.4473953e-07
128	0x3bdbef9b	0.006711913
129	0xbe5f59c3	-0.21811585
130	0xbd5cdb31	-0.053919975
131	0x3c9ca1a7	0.01912005
132	0x3be4aad4	0.006978372
133	0xbe298fa9	-0.16558708
134	0x3a2eb5e0	0.0006664675
135	0x3d887267	0.066624455
136	0xbc4ce923	-0.012506756
137	0xb3ba5650	-8.677e-08
138	0x3c1d41a6	0.009598171
139	0x3c89c4fc	0.016817562
140	0x3e2e836c	0.17042321
141	0x3df6f30f	0.120580785
142	0x3c975318	0.01847224
143	0xbb3e9098	-0.0029077884
144	0x3e760a42	0.2402735
145	0x3c84d5d5	0.016215244
146	0x39e19dec	0.00043033005
147	0x3a0b6965	0.0005318134
148	0x3c8abd0f	0.016935853
149	0xbc3c4811	-0.011491791
150	0x3b26eab0	0.0025469474
151	0xbce46513	-0.027880227
152	0x3d1d07ff	0.038337704
153	0xbb71e33e	-0.0036909129
154	0x3e46fef0	0.19433188
155	0xbcaf6c39	-0.02141391
156	0x3bac5932	0.0052596563
157	0xbd237720	-0.03990853
158	0xbc13fdee	-0.0090327095
159	0x3b042ebf	0.0020169464
160	0x3d10a844	0.03531672
161	0xb8843e9c	-6.3059124e-05
162	0x3e63d67d	0.2224979
163	0xb6053d2a	-1.9854147e-06
164	0x3e8f0c48	0.27939057
165	0x3c972904	0.018452175
166	0x3e9c5a29	0.30537537
167	0xb7818e72	-1.544433e-05
168	0xbcff68b9	-0.031177865
169	0x3bc8471c	0.0061119925
170	0x3b85c580	0.0040823817
171	0x3e91a9b2	0.2844978
172	0x3ea52921	0.3225794
173	0x3e9f074a	0.3106025
174	0xbc88577a	-0.016643275
175	0xb427bc74	-1.5621646e-07
176	0x3db7a243	0.08966496
177	0xbd07a193	-0.033113074
178	0xba2e516c	-0.0006649706
179	0x3d5899b1	0.052880947
180	0x3e622f44	0.22088343
181	0x3d15ed0d	0.036603022
182	0x3deae89e	0.114701495
183	0x3e86b837	0.2631242
184	0xbd15ae6e	-0.036543302
185	0xbb83e771	-0.0040253927
186	0xbc2b44f1	-0.010453449
187	0xba340e8f	-0.00068686245
188	0x3e419efc	0.18908304
189	0xbbd39b3a	-0.0064577134
190	0x3b54dcb7	0.003248019
191	0x3ea1a849	0.31573704
192	0x3b353bfc	0.0027654162
193	0xbc92619f	-0.017868815
194	0xb6b69963	-5.4418792e-06
195	0x396db7dd	0.00022670576
196	0xbca81456	-0.02051751
197	0x3e5d5310	0.21613717
198	0x3dace5ec	0.084422916
199	0x3d0d1656	0.03444513
200	0xb895494d	-7.118527e-05
201	0xbc35df14	-0.011100549
202	0x3e584a61	0.21122123
203	0xbc242f7a	-0.010021085
204	0x3b00567f	0.0019582806
205	0xbcc6d5fa	-0.024271954
206	0xb9b7f539	-0.00035087185
207	0x33651166	5.333404e-08
208	0x3ce24727	0.027621819
209	0x3c56c493	0.01310839
210	0xbd0741dc	-0.033021793
211	0x3ce503f8	0.027955994
212	0x3e59fe6f	0.21288465
213	0xbd4b95bf	-0.049703356
214	0x38a0a681	7.660408e-05
215	0xbc930d65	-0.017950723
216	0xbbe0e3aa	-0.006863077
217	0xb2088774	-7.94704e-09
218	0x3d2e45c6	0.04254701
219	0x3d986b36	0.07442324
220	0x3d949e7b	0.0725679
221	0x3d4e0780	0.05030012
222	0xbd16a4da	-0.03677831
223	0xb997d2d5	-0.00028958046
224	0x3bf1cd51	0.007379212
225	0x3be44454	0.006966153
226	0xbc01e2e4	-0.00792763
227	0x3acf6dbf	0.0015825554
228	0x3d5aac44	0.05338694
229	0xbd11fd92	-0.035642214
230	0x3c56a946	0.013101881
231	0xbe09a9b0	-0.13443637
232	0xbba017e5	-0.004885661
233	0x3c090d4b	0.008364986
234	0x3df4f493	0.11960711
235	0x3e16bb31	0.14719845
236	0x3e75674d	0.23965187
237	0xbe5bd205	-0.21466835
238	0x3e68dac0	0.22739697
239	0x39885854	0.0002600575
240	0x3d6a470a	0.057196654
241	0x3e3a72f4	0.18207914
242	0x3d4cd003	0.050003063
243	0x35b986bf	1.382279e-06
244	0x3c52655e	0.012841551
245	0x3e09b338	0.13447273
246	0x3e283e38	0.16429985
247	0xb8c6e598	-9.484141e-05
248	0x3d0970a1	0.033554677
249	0x39b1d159	0.00033916047
250	0x3c47cf0a	0.012195358
251	0x3ceeceb8	0.029151306
252	0x3c16f8ed	0.009214622
253	0x3c81673b	0.015796294
254	0xbdf70ecf	-0.120633714
255	0xb44b63a3	-1.8942096e-07

conv1/kernel/read__8 f4 [16, 3, 7, 7]
0	0xbd2be166	-0.041963004
1	0xbc004fdc	-0.00783154
2	0xbcc9599b	-0.02457886
3	0xbd8265e2	-0.06367089
4	0xbd1e1c7f	-0.038601395
5	0xbbd166d5	-0.0063904324
6	0xb8a89462	-8.038503e-05
7	0xbc8eed52	-0.017447148
8	0xbd0f6fd0	-0.035018742
9	0xbded08c6	-0.11573939
10	0xbe0e3d60	-0.138906
11	0xbcabd144	-0.020973809
12	0xbc9decf7	-0.019278033
13	0x38a25605	7.740784e-05
14	0xbc14e2fa	-0.009087319
15	0xbda015f4	-0.07816687
16	0xbddc5af7	-0.10759538
17	0xbe52a5d6	-0.20571074
18	0xbdd28299	-0.10278816
19	0x394ba3b7	0.00019420577
20	0x39806bde	0.0002449443
21	0xbb182497	-0.0023215169
22	0xbd29efd8	-0.0414885
23	0xbdbf5e61	-0.09344173
24	0xbe619cb5	-0.22032435
25	0xbd53e627	-0.051733162
26	0xbbdfeaa8	-0.006833393
27	0x38dcfeae	0.00010537855
28	0xbb895397	-0.004190873
29	0xbc9ddb13	-0.019269502
30	0xbcbcf4a1	-0.023065867
31	0xbe078536	-0.1323441
32	0xbc92ddf4	-0.017928101
33	0x392a2d62	0.0001622937
34	0x39160878	0.0001430827
35	0xbb89f2a8	-0.004209835
36	0xbc872cf0	-0.01650092
37	0xbc648d47	-0.013949699
38	0xbc1be11f	-0.009514122
39	0x39305e3a	0.0001681977
40	0xbc152dc3	-0.009105149
41	0xba30b70d	-0.0006741144
42	0xbc6aef3e	-0.014339266
43	0xbc3751e2	-0.011188956
44	0xbbf573e4	-0.007490622
45	0xbb617115	-0.0034399678
46	0xbaf25b39	-0.0018490321
47	0xbc3535e2	-0.01106021
48	0xbae5c4d1	-0.0017529969
49	0xb9ec2bcc	-0.0004504606
50	0x38dffeb8	0.00010680914
51	0x395a9ed2	0.00020849265
52	0x36ad8722	5.1715333e-06
53	0xb9415dca	-0.00018440853
54	0xb9091264	-0.00013072189
55	0x38675189	5.5150627e-05
56	0xb973a0d0	-0.00023234193
57	0x39af3faf	0.0003342605
58	0x3a357a79	0.0006922852
59	0x3a1ab9f9	0.0005902346
60	0x39352f89	0.00017279213
61	0x390ad56c	0.00013240211
62	0x3961a0f6	0.00021517635
63	0x38975539	7.216115e-05
64	0x39dbc9b0	0.00041921204
65	0x3a6e60e8	0.00090934196
66	0x3a88d668	0.0010439875
67	0x39f5d044	0.00046885211
68	0x39ebf024	0.00045001612
69	0x3a106e53	0.00055096037
70	0x37d5eb3e	2.5501122e-05
71	0xbab1977c	-0.0013549174
72	0x3a00da77	0.00049153663
73	0x3a1e8e3c	0.0006048416
74	0x39a7db3e	0.0003201607
75	0x3979ae4e	0.00023811424
76	0x3980b6b7	0.00024550196
77	0x39c6cc7e	0.00037917861
78	0xb8cf8fd8	-9.897322e-05
79	0x3a00e0f9	0.0004916336
80	0x3a4ee0f7	0.0007891799
81	0x3a2b4027	0.0006532692
82	0x3a90a66a	0.0011035923
83	0x3a07bbba	0.0005177815
84	0xba54a819	-0.00081122067
85	0xbb0019ae	-0.0019546556
86	0xba1d071f	-0.0005990136
87	0x3a01f8ef	0.00049580535
88	0x39e352c5	0.00043358482
89	0x39c98b3b	0.00038441442
90	0x3997b3c4	0.000289349
91	0xbb57834b	-0.0032884653
92	0xbb57096e	-0.0032812017
93	0xbaf17279	-0.0018420956
94	0xba4d6eb4	-0.00078366254
95	0xb986deae	-0.0002572438
96	0xb9774dea	-0.00023584781
97	0xba892e82	-0.0010466131
98	0x3c4b84ea	0.012421826
99	0xb75c7cf0	-1.3142111e-05
100	0x392e217a	0.00016606404
101	0xb9460d4d	-0.00018887706
102	0xba2a4e35	-0.0006496639
103	0xb9eb426e	-0.00044872187
104	0xb99e674f	-0.0003021308
105	0x3cf6492a	0.030064184
106	0x3d920a28	0.071308434
107	0x3dac565b	0.084149085
108	0x3d8b56d0	0.068036675
109	0x3d75376c	0.059867308
110	0xb9204532	-0.00015284566
111	0x3711a4f0	8.681076e-06
112	0x3d3ff081	0.04686022
113	0x3c59cb97	0.0132931685
114	0x3db5a62d	0.08869586
115	0x3d3a1227	0.045427468
116	0x3d0d0577	0.03442904
117	0x3951fe3e	0.00020026506
118	0x3aa9c208	0.0012951503
119	0x3d7c7459	0.061634395
120	0x3e1e1fe0	0.15441847
121	0x3e1cbf26	0.15307292
122	0x3d9300b7	0.07177871
123	0x3e3f36d5	0.1867326
124	0x3d489e2f	0.04897898
125	0x3c81922d	0.015816772
126	0x3c1df7f4	0.009641636
127	0x3c8a6e3b	0.016898265
128	0x3d7970fb	0.060898762
129	0x3a81271e	0.0009853577
130	0x3cc3d068	0.023903087
131	0x3a7812e3	0.00094632636
132	0x3b0072f1	0.001959976
133	0x394e6757	0.00019684188
134	0x3cd2fab3	0.025754308
135	0x3e127891	0.14303805
136	0x3da49970	0.080370784
137	0x3e1a3d84	0.15062529
138	0x39923795	0.00027888702
139	0x395c9333	0.00021035671
140	0xbab4f205	-0.0013805038
141	0xbac1682f	-0.001475578
142	0x3db5b82c	0.088730186
143	0x3e21f6a9	0.1581675
144	0x3e1f58b2	0.15561178
145	0x3d5f1e14	0.054472044
146	0x3d48afc3	0.048995744
147	0x3b71d09f	0.003689803
148	0x3afa48f5	0.0019095229
149	0x3b349f9e	0.002756096
150	0x3af279e0	0.0018499456
151	0x3b0039ab	0.0019565623
152	0x3aac3a62	0.0013139958
153	0x3b80d2b9	0.00393137
154	0x3a10476c	0.0005503807
155	0xb90aaed4	-0.00013225834
156	0xb8999b65	-7.324553e-05
157	0xb74c0015	-1.2159367e-05
158	0x3915b54f	0.0001427729
159	0x39847bec	0.0002526933
160	0x3b2b4454	0.0026133256
161	0xb9483742	-0.00019094071
162	0xb9345c60	-0.0001720055
163	0xb92c8c73	-0.0001645552
164	0xb90dde96	-0.00013529728
165	0xb801d7cc	-3.0956973e-05
166	0x395484e9	0.00020267408
167	0x393750af	0.00017482297
168	0xb9983fb2	-0.00029039156
169	0xb959c34c	-0.00020767486
170	0xb91e1fa2	-0.00015079838
171	0xb850abbe	-4.9751012e-05
172	0x37db79ae	2.6163496e-05
173	0x39aec024	0.00033331022
174	0x3a1d4d95	0.00060006353
175	0x3ab280de	0.0013618728
176	0x3c04615a	0.008079851
177	0x3c32168e	0.010869635
178	0x3bd4b446	0.006491217
179	0x3d909760	0.070601225
180	0x3ce1b3fa	0.02755164
181	0x3e04ed24	0.12981087
182	0x3aa4a513	0.0012561403
183	0x3b370764	0.002792799
184	0x3b6c29cc	0.0036035655
185	0x3d065b52	0.032801934
186	0x3db954dd	0.090493895
187	0x3df796c5	0.12089304
188	0x3da9b742	0.08286907
189	0xb985273c	-0.0002539697
190	0x39357c6c	0.00017307856
191	0xb99c7b93	-0.0002984671
192	0xb9632915	-0.00021663711
193	0xb922c350	-0.00015522284
194	0xb836031b	-4.3395074e-05
195	0x3a6cdcab	0.00090355676
196	0xbc268b05	-0.010164981
197	0xbe11f1a1	-0.1425233
198	0xbe13e5f7	-0.14443193
199	0xbe75e344	-0.24012476
200	0xbe36bc4a	-0.17845264
201	0xbe455a05	-0.19272621
202	0xbe1442dc	-0.1447863
203	0xbdab325b	-0.08359214
204	0xbda82f07	-0.08212095
205	0xbe13a5da	-0.14418736
206	0xbe44558d	-0.1917326
207	0xbe15111e	-0.14557311
208	0xbe2bd913	-0.16782026
209	0xbe28f8b4	-0.16501123
210	0xbe159ef7	-0.14611422
211	0xbe03a899	-0.12857284
212	0xbe52c18a	-0.20581642
213	0xbe1609ca	-0.14652172
214	0xbd8a51ff	-0.06753921
215	0xbe593f80	-0.2121563
216	0xbe4ecec3	-0.20196061
217	0xbc2ef89f	-0.010679393
218	0xbc53af67	-0.012920237
219	0xbadffbd6	-0.0017088603
220	0xb94c86b7	-0.00019505141
221	0xb92ea8f3	-0.00016656872
222	0xbbdc66ae	-0.0067261076
223	0xb827dd25	-4.002186e-05
224	0x38a76a47	7.982976e-05
225	0x3af6821d	0.0018807087
226	0x3b07e673	0.0020736724
227	0x3a3f9181	0.00073077535
228	0x38dc9589	0.000105182706
229	0x39487d60	0.00019120192
230	0x39b8c3bf	0.00035241057
231	0x3a40bde6	0.0007352516
232	0x3d8560a1	0.06512571
233	0x3e1eb4d9	0.15498675
234	0x3e4e46d6	0.2014421
235	0x3e86729f	0.26259324
236	0x3e3a6501	0.18202592
237	0x3e0e3bf8	0.13890064
238	0x3d3c74d7	0.046009865
239	0x3e608b0a	0.21928039
240	0x3e84b1a0	0.25916767
241	0x3e8673ee	0.26260322
242	0x3ea7bd83	0.32761773
243	0x3e627cf9	0.22117986
244	0x3df1590e	0.11784564
245	0xbb0f5d52	-0.0021875692
246	0xbd5527e9	-0.052040014
247	0xbc885910	-0.01664403
248	0xbcf00eaf	-0.029303877
249	0xb92f0da8	-0.00016694388
250	0xbcdb9bec	-0.026807748
251	0xbcb308fc	-0.02185487
252	0xbd6a9f88	-0.057281047
253	0xba0a1912	-0.0005268018
254	0xbb31655c	-0.0027068472
255	0xbbee88ce	-0.007279492

bn_conv1/batchnorm/sub__11 f4 [1, 16, 1, 1]
0	0x3d0a7558	0.033803314
1	0x3f0dfaf4	0.5546105
2	0x3f922ab8	1.1419287
3	0x4012d39e	2.294166
4	0x3e63dc08	0.22251904
5	0xbe8f106a	-0.2794221
6	0xbf50f528	-0.8162408
7	0xbeeb072f	-0.45903918
8	0x3fd76a6e	1.6829355
9	0x3f95db62	1.1707575
10	0x4049afad	3.1513474
11	0xbea9ecbb	-0.33188424
12	0x3f2f1dec	0.6840503
13	0xbef6df4f	-0.48217246
14	0xbcd9f91b	-0.02660804
15	0xbf0c36ed	-0.5477131

bn_conv1/batchnorm/mul__10 f4 [1, 16, 1, 1]
0	0x3ff64f26	1.9242904
1	0x40350e8c	2.8290129
2	0x403a0632	2.9066281
3	0x40bcca62	5.899705
4	0x40259eb4	2.5878115
5	0x4131868d	11.095349
6	0x41acfdc2	21.623905
7	0x4117def3	9.491931
8	0x40a2cd16	5.087535
9	0x40af8962	5.4855204
10	0x40a4a8dc	5.1456127
11	0x41481ab9	12.506524
12	0x401a69dd	2.4127114
13	0x41820de7	16.256788
14	0x40801e3f	4.003692
15	0x418e8bca	17.818256

block_4b_conv_2/kernel/read__88 f4 [80, 16, 3, 3]
0	0xb881c162	-6.18722e-05
1	0xbcacd3b6	-0.021097045
2	0xb9bdaf05	-0.0003617929
3	0xb88ff26c	-6.863926e-05
4	0xbc9bcbb2	-0.019018028
5	0x3b1dc2ca	0.0024072402
6	0xb8d267d0	-0.00010032917
7	0xbcf1435d	-0.029451067
8	0xbb4a49aa	-0.003086666
9	0x3564734e	8.510441e-07
10	0x359b0ccf	1.1552128e-06
11	0xbbf8cb47	-0.007592592
12	0x3acccb85	0.0015624618
13	0x39216a29	0.00015393704
14	0x3812a8d6	3.4966353e-05
15	0x3ae18720	0.0017206408
16	0x3983ceec	0.00025140436
17	0x3b0fee73	0.0021962195
18	0x3821344f	3.8434107e-05
19	0x37fd7112	3.0212603e-05
20	0xbe0250ff	-0.1272621
21	0xb7026511	-7.772135e-06
22	0x39c18d6d	0.000369172
23	0xbe1b7d9d	-0.15184636
24	0x390c6364	0.00013388466
25	0x3894294e	7.0648835e-05
26	0xbde07839	-0.10960431
27	0xb8e634ff	-0.00010977126
28	0xb8a7e067	-8.004979e-05
29	0x38d94c99	0.00010361634
30	0xb9196764	-0.00014629733
31	0xb92d3e38	-0.00016521744
32	0x386d5f3b	5.6593894e-05
33	0xb92496bd	-0.00015696413
34	0xb93554fd	-0.00017293166
35	0x3ad09f98	0.0015916703
36	0xbb10baf2	-0.0022084084
37	0xbb1b2fd6	-0.0023679635
38	0xb914d972	-0.00014195385
39	0x38b6fa9d	8.725117e-05
40	0xb9b5fd16	-0.00034711574
41	0x3b953d47	0.004554424
42	0x3a6e046d	0.0009079639
43	0x3996aed5	0.0002874049
44	0x398f19dd	0.00027294355
45	0xb395f63d	-6.983144e-08
46	0x33744080	5.686934e-08
47	0xb1b22c0c	-5.1854894e-09
48	0xb4984990	-2.836573e-07
49	0x3496f326	2.811659e-07
50	0x332dd0da	4.046965e-08
51	0x3136db58	2.6609168e-09
52	0xb4763d35	-2.2932802e-07
53	0x33f0b0fd	1.1208065e-07
54	0xb7978a70	-1.8065068e-05
55	0xb84371f4	-4.659775e-05
56	0xbac773f4	-0.0015217052
57	0xb61469d9	-2.211533e-06
58	0xb847bdd8	-4.7622103e-05
59	0xbb2a2195	-0.0025959958
60	0xb83b9531	-4.472322e-05
61	0xba1075b0	-0.0005510701
62	0xbbf3f530	-0.007445
63	0xb4b17bd0	-3.3058905e-07
64	0xb25224d2	-1.2231981e-08
65	0x337b1ea6	5.8468366e-08
66	0xb4f91350	-4.6393916e-07
67	0xb3c0d960	-8.980237e-08
68	0xb53e361f	-7.085927e-07
69	0xb4267216	-1.5501459e-07
70	0x33c15de4	9.0043415e-08
71	0x34239232	1.5233744e-07
72	0xbd0e7af9	-0.034785245
73	0xbc96aa54	-0.018391766
74	0x3a5d9c4f	0.0008453773
75	0xbcadccc3	-0.021215802
76	0xbb1a220b	-0.0023518826
77	0x3a783929	0.0009468967
78	0xbc854137	-0.016266448
79	0xbc196248	-0.009361811
80	0x3a43cc79	0.00074691285
81	0xb49f2e14	-2.9649584e-07
82	0x37cee323	2.4662882e-05
83	0x37af0bc1	2.0867099e-05
84	0xb7836040	-1.5661237e-05
85	0x3765f795	1.3707108e-05
86	0x381edbe3	3.787492e-05
87	0xb5f1be8e	-1.8011358e-06
88	0x37dec57c	2.6556423e-05
89	0x380c4c33	3.3449567e-05
90	0x3b8794fa	0.0041376324
91	0xba93910a	-0.0011258435
92	0x3cd97141	0.026543261
93	0x3bfcbcda	0.0077129425
94	0x3cbc4152	0.022980366
95	0x3cbb232e	0.022843923
96	0xbac44a3b	-0.0014975736
97	0x3b1463d2	0.0022642505
98	0x39ee6b12	0.0004547467
99	0xb47dbda1	-2.3631448e-07
100	0xb4e13eed	-4.19553e-07
101	0x340d4da0	1.3159888e-07
102	0xb423e13e	-1.52625e-07
103	0x342173e6	1.5036457e-07
104	0xb3aa6222	-7.934092e-08
105	0x325bdd52	1.27978e-08
106	0x34806fd2	2.3923218e-07
107	0xb47d4765	-2.3588434e-07
108	0xbbab0c03	-0.005219938
109	0x398fb9b2	0.0002741344
110	0x3d006f9c	0.03135644
111	0xbd0eaab8	-0.03483078
112	0x3797cab7	1.8095e-05
113	0x3c298c06	0.010348326
114	0xb8a98ea1	-8.085115e-05
115	0x3959ab89	0.00020758634
116	0x3d6e8148	0.05822876
117	0xbbb9b467	-0.0056672576
118	0xbc883dd0	-0.016631037
119	0xbd9be3d6	-0.07611816
120	0xba20ffc4	-0.00061416277
121	0xb944d5a2	-0.00018771601
122	0xbdf54250	-0.11975539
123	0xba7dbed3	-0.0009679619
124	0xb9397a01	-0.00017688425
125	0xbdefa2b9	-0.11700959
126	0xbc207a20	-0.009794742
127	0xb92e3319	-0.00016612968
128	0xbcec112b	-0.02881678
129	0x3a274976	0.0006381491
130	0x3a00dd3c	0.0004915779
131	0xbd14fd77	-0.036374535
132	0xb8a7786f	-7.985613e-05
133	0xbcc92950	-0.024555832
134	0xb9de7fbb	-0.00042438306
135	0x39e4f9aa	0.00043673563
136	0xbbe1995d	-0.0068847374
137	0xb912241d	-0.00013937098
138	0x39189ff9	0.00014555444
139	0xb9288184	-0.00016069977
140	0xb90f82b0	-0.00013686228
141	0x3aad860e	0.0013238804
142	0xb837a6be	-4.378589e-05
143	0xb91c7475	-0.00014920703
144	0xb89dafd2	-7.5190925e-05
145	0xb9b65cdd	-0.00034782934
146	0xb937eb0d	-0.00017539803
147	0xb9c4cf9e	-0.0003753872
148	0xbc27920d	-0.010227692
149	0xb89e48bd	-7.547576e-05
150	0xb9b0f8c5	-0.00033754684
151	0xbb9b6982	-0.004742802
152	0xbad96cbd	-0.0016588193
153	0xbd019b9b	-0.031642538
154	0xbc6572fe	-0.014004467
155	0xbd6b0fca	-0.057388104
156	0xb943f3e5	-0.00018687507
157	0xb929eca6	-0.00016205254
158	0xbcae6d74	-0.021292426
159	0xb930b040	-0.00016850326
160	0xb923a460	-0.00015606126
161	0xb935d69b	-0.00017341452
162	0xb94b038d	-0.00019360911
163	0xb932e9c4	-0.00017062487
164	0xb948367a	-0.0001909378
165	0xb7b77e80	-2.1874206e-05
166	0xb7c6bb1c	-2.3690569e-05
167	0xb840e576	-4.599007e-05
168	0xb909fef4	-0.00013160316
169	0xb90bc9d6	-0.00013331263
170	0xb917b11a	-0.00014466458
171	0x389ec0f4	7.5699674e-05
172	0x393c99da	0.00017986391
173	0x3db35e29	0.08758194
174	0xbcaa0901	-0.020756247
175	0x385f7b99	5.3282452e-05
176	0x390b073e	0.00013258771
177	0xbd3173c0	-0.04332328
178	0x39051ac8	0.00012693845
179	0x38a7d551	8.002914e-05
180	0x3d464287	0.04840329
181	0x3c64f0bb	0.01397341
182	0x3de2382e	0.11045872
183	0xbc33f33e	-0.010983286
184	0xbc252766	-0.010080194
185	0xbae7cc23	-0.0017684739
186	0xbdc95f90	-0.0983268
187	0xbbcb5f55	-0.006206433
188	0x391ca1ec	0.0001493764
189	0x3460dd29	2.0942083e-07
190	0x329e6861	1.8441087e-08
191	0x34268a1a	1.5510196e-07
192	0xb1af280c	-5.097723e-09
193	0xb3d06ab7	-9.705166e-08
194	0xb4303bb6	-1.6413e-07
195	0xb3fea4f6	-1.1857803e-07
196	0xb45cb309	-2.0554229e-07
197	0xb1b5124c	-5.2698734e-09
198	0x3d3cfffd	0.046142567
199	0x3cda7d88	0.026671186
200	0x3cb53d27	0.022123886
201	0xb91fbb4c	-0.00015233195
202	0xb6e453dd	-6.8046925e-06
203	0x391ac4e7	0.00014759936
204	0xba660f75	-0.0008776107
205	0xba0167b9	-0.00049364154
206	0xb8676b25	-5.5174478e-05
207	0x32cbe550	2.373659e-08
208	0xb446c08e	-1.8510238e-07
209	0x348bf516	2.606909e-07
210	0x3265a8f0	1.3367966e-08
211	0xb41f068a	-1.4810408e-07
212	0x339d37a2	7.321002e-08
213	0x3459ad73	2.02728e-07
214	0xb4c539dc	-3.6736208e-07
215	0xb3094fb7	-3.19703e-08
216	0xbcb5e414	-0.022203483
217	0xb94e3225	-0.00019664371
218	0xbd100e85	-0.035170097
219	0xbd12cd04	-0.03584005
220	0x38dbb656	0.000104766965
221	0x394c1a55	0.00019464766
222	0xb844ecb9	-4.6950507e-05
223	0xbbaf4450	-0.0053487197
224	0xbc85778b	-0.016292354
225	0xb89f9952	-7.610269e-05
226	0xb889b01f	-6.565474e-05
227	0xb86a283b	-5.5827415e-05
228	0xb8efaca4	-0.00011428565
229	0xb8bbf82d	-8.963081e-05
230	0xb8b367a4	-8.55469e-05
231	0xb9358b83	-0.00017313477
232	0xb92be192	-0.00016391862
233	0xb9231c66	-0.0001555547
234	0xb8d8b2ff	-0.00010333023
235	0xb99c854d	-0.00029853955
236	0xb997d040	-0.00028956123
237	0x382810cb	4.006996e-05
238	0xb98f7bbf	-0.00027367283
239	0xb993c5dc	-0.00028185442
240	0xbbf7610f	-0.007549412
241	0xbc0097ac	-0.007848661
242	0xb9af79a8	-0.00033469242
243	0x33a16b42	7.516657e-08
244	0xb424abea	-1.5336232e-07
245	0xb3832d43	-6.108396e-08
246	0x325d06f2	1.2865472e-08
247	0xb485f589	-2.495183e-07
248	0x3407ebc3	1.2658624e-07
249	0xb32769b7	-3.8978865e-08
250	0x33f467cf	1.1381018e-07
251	0x33d3a87b	9.8560996e-08
252	0x3da6d86b	0.08146747
253	0x3d2e9431	0.042621795
254	0x3dcd8a98	0.100362
255	0x38a73eb7	7.974862e-05

block_4b_conv_1/kernel/read__84 f4 [16, 80, 3, 3]
0	0xb32f6218	-4.083458e-08
1	0x33f0a501	1.1205885e-07
2	0x33c8e49e	9.354811e-08
3	0xb3694a49	-5.4317102e-08
4	0xb2dd5401	-2.5765987e-08
5	0xb3d66409	-9.983348e-08
6	0x33aed71a	8.141633e-08
7	0xb41e1436	-1.472225e-07
8	0xb3b08042	-8.2189686e-08
9	0x3314da95	3.4657734e-08
10	0xb47e6aed	-2.3694493e-07
11	0x31a92bcc	4.9235265e-09
12	0xb426241a	-1.5473088e-07
13	0x332f312a	4.0790077e-08
14	0x33c3bef3	9.1151286e-08
15	0x3421fb36	1.5085683e-07
16	0x34c912d4	3.7452867e-07
17	0xb39ef801	-7.40256e-08
18	0xb3d76efc	-1.00319056e-07
19	0xb423de3e	-1.5261409e-07
20	0x34621d40	2.1058531e-07
21	0xb3e26975	-1.05431276e-07
22	0xb4482282	-1.8639005e-07
23	0xb3aa87dc	-7.9409546e-08
24	0xb32e4c5a	-4.0581973e-08
25	0xb4f9247d	-4.6406413e-07
26	0xb3778194	-5.762702e-08
27	0xbca4840a	-0.020082492
28	0x399c4774	0.00029807875
29	0x3969240c	0.0002223404
30	0x3c59a76f	0.013284548
31	0x3db29523	0.08719852
32	0x3d59dcb8	0.05318901
33	0x3ac2ef8c	0.0014872416
34	0x3af0de54	0.0018376806
35	0xb709b251	-8.207354e-06
36	0x332b7bea	3.992674e-08
37	0x332300f2	3.7952255e-08
38	0x33cc57af	9.51544e-08
39	0x347f488d	2.377512e-07
40	0xb2266f50	-9.687781e-09
41	0x34236232	1.5216281e-07
42	0xb1b956cc	-5.3940763e-09
43	0x33711594	5.613181e-08
44	0xb1ada50c	-5.0537263e-09
45	0xb78b0807	-1.657383e-05
46	0xb8086209	-3.251623e-05
47	0xb841c6c2	-4.6199893e-05
48	0xb87934dc	-5.9415455e-05
49	0xb88c1513	-6.6796456e-05
50	0xb8d37376	-0.0001008277
51	0xb80e1ee4	-3.3884207e-05
52	0xb8194ae3	-3.6547786e-05
53	0xb7d27333	-2.5087595e-05
54	0xb4b1e9b8	-3.3138872e-07
55	0x3299bfa1	1.7898687e-08
56	0x341f667e	1.4845315e-07
57	0x33339a48	4.1817003e-08
58	0xb3c12ea0	-8.995744e-08
59	0x34b7d28b	3.4239596e-07
60	0x33aefe4a	8.148761e-08
61	0xb422e82e	-1.5171892e-07
62	0x34cb78d6	3.7899616e-07
63	0xb892879d	-6.9870825e-05
64	0x399b4930	0.00029618433
65	0x3bcefb9d	0.0063166157
66	0x3d42c91b	0.04755507
67	0x3ee3e73b	0.44512352
68	0x38f8f198	0.00011870562
69	0x3db38735	0.08766023
70	0x3ebe932d	0.3722166
71	0x3e11f2b5	0.14252742
72	0xb410881e	-1.3460564e-07
73	0xb4240d36	-1.5278496e-07
74	0xb41db5ac	-1.4687856e-07
75	0x33f4c120	1.13972646e-07
76	0x34233632	1.5200274e-07
77	0x32efc666	2.7913483e-08
78	0x34875335	2.520625e-07
79	0xb48462c1	-2.465877e-07
80	0x344670c2	1.8481208e-07
81	0x39fdba7b	0.0004839486
82	0x3bc1fb41	0.0059198444
83	0x39887a85	0.00026031226
84	0x394165a6	0.00018443781
85	0x39e1eacc	0.00043090282
86	0xb825793e	-3.945198e-05
87	0xb919e2be	-0.00014675685
88	0xb9ca6adb	-0.00038608056
89	0xba0d8e16	-0.00053998956
90	0x331a0bf4	3.586679e-08
91	0x34c43916	3.654938e-07
92	0xb42c8691	-1.6067703e-07
93	0x34a947c9	3.1530934e-07
94	0xb3c4f843	-9.17212e-08
95	0x321ee430	9.248694e-09
96	0xaef2b000	-1.103615e-10
97	0x3241a6f2	1.12720375e-08
98	0xb26f4780	-1.3927888e-08
99	0xb47ea9e1	-2.3717395e-07
100	0xb43fcd8f	-1.7863043e-07
101	0x3426861a	1.550874e-07
102	0xb47259fb	-2.2570741e-07
103	0xb4c128de	-3.5978786e-07
104	0xb3a139c2	-7.507653e-08
105	0x347eade1	2.371885e-07
106	0xb4705a4f	-2.2384596e-07
107	0xb4239332	-1.5234107e-07
108	0xb4597c25	-2.0254863e-07
109	0xb4265212	-1.5489812e-07
110	0xb46c1364	-2.1986267e-07
111	0x34263f06	1.5482883e-07
112	0x30007600	4.6733817e-10
113	0xb327324a	-3.8928455e-08
114	0xb36149d9	-5.245406e-08
115	0x342e4931	1.623164e-07
116	0xb46ff243	-2.2346744e-07
117	0x344ed061	1.9261053e-07
118	0xb1feab70	-7.411863e-09
119	0x337284b0	5.6465694e-08
120	0xb46712f2	-2.1520444e-07
121	0xb32d85aa	-4.0401268e-08
122	0xb3bd3196	-8.810018e-08
123	0xb3c28204	-9.057479e-08
124	0x3420cfca	1.4976754e-07
125	0x3443e5e6	1.8244427e-07
126	0xb460ab89	-2.092403e-07
127	0x33ad8894	8.080784e-08
128	0x30d41100	1.5429862e-09
129	0xb4577ec0	-2.0069547e-07
130	0x33ff7d86	1.18971954e-07
131	0xb4c28482	-3.6231728e-07
132	0x3436a28c	1.7009205e-07
133	0x2eef7000	1.0888357e-10
134	0x340f6f77	1.3358463e-07
135	0xb4866d52	-2.5038986e-07
136	0xb3c3c2f3	-9.115856e-08
137	0x341b159a	1.4443359e-07
138	0x33ab504e	7.977415e-08
139	0x34c8b9e4	3.7388156e-07
140	0x340c5620	1.3069848e-07
141	0x340a97ec	1.290752e-07
142	0x341b079a	1.4438265e-07
143	0x3480b1e5	2.3971293e-07
144	0xb3c60176	-9.220359e-08
145	0x3456fe20	2.0022753e-07
146	0x33f17845	1.1244314e-07
147	0xb32c1cce	-4.007307e-08
148	0x34223b4e	1.5109e-07
149	0x34c2e08e	3.62987e-07
150	0x34649a28	2.1290236e-07
151	0x33c85303	9.3283255e-08
152	0x3426821a	1.5507285e-07
153	0x340c71b7	1.3079885e-07
154	0x32bbf4a0	2.1880908e-08
155	0x3296910c	1.7528258e-08
156	0xb3f465cf	-1.1380654e-07
157	0xb280ed00	-1.5008936e-08
158	0x34852c5d	2.480546e-07
159	0xb4c40730	-3.6513075e-07
160	0x34857f57	2.4865832e-07
161	0x34c45f18	3.6577035e-07
162	0x3d72a413	0.059238505
163	0x3b1410d0	0.002259303
164	0x3b52ccc7	0.0032165514
165	0x3d320b32	0.043467708
166	0x3e16749e	0.14692923
167	0x3b0acdeb	0.0021179866
168	0x3b22c225	0.0024834957
169	0x3a2711bf	0.0006373189
170	0x3808c061	3.2604094e-05
171	0xb4812187	-2.4052517e-07
172	0xb3c678ac	-9.2420436e-08
173	0xb50654eb	-5.004246e-07
174	0xb40f8646	-1.3366761e-07
175	0xb4c1d0d4	-3.6100994e-07
176	0x33d3b98b	9.859203e-08
177	0x348c49c2	2.6130698e-07
178	0x344db486	1.9157787e-07
179	0x339446db	6.9046756e-08
180	0xb4255fdc	-1.5401696e-07
181	0xb3cbb893	-9.486498e-08
182	0xb3dc94e9	-1.0271635e-07
183	0xb4847fe4	-2.467997e-07
184	0xb4825361	-2.4275053e-07
185	0x34c2c88e	3.628124e-07
186	0xb255a472	-1.2435622e-08
187	0xb374c620	-5.699087e-08
188	0x32a337a1	1.9000995e-08
189	0x32825238	1.517138e-08
190	0xb481acd7	-2.415388e-07
191	0xb468acb0	-2.1669507e-07
192	0xb4c81c26	-3.7273384e-07
193	0x349151db	2.7067912e-07
194	0x33efb0c7	1.11614604e-07
195	0xb4fab9f6	-4.6701433e-07
196	0xb3deee8b	-1.0381071e-07
197	0xb3b4a7a6	-8.412398e-08
198	0x3922752e	0.00015493177
199	0xb86009b5	-5.3414802e-05
200	0xb7e2988e	-2.7012338e-05
201	0x380b52e3	3.3217377e-05
202	0x3d1e7512	0.038685866
203	0xba67b20e	-0.0008838483
204	0x3d7feffb	0.062484723
205	0x3e16033f	0.14649676
206	0xbc1618ff	-0.009161233
207	0x33730184	5.6579225e-08
208	0xb3d41834	-9.876422e-08
209	0xb4876e33	-2.522589e-07
210	0x3371b81c	5.627963e-08
211	0xb3780a74	-5.7751507e-08
212	0x3286d4e0	1.5696457e-08
213	0x342d504b	1.6141091e-07
214	0x3406bbb2	1.2548006e-07
215	0xb4263706	-1.5479972e-07
216	0xb86e80f6	-5.6863726e-05
217	0x3890e5d4	6.909264e-05
218	0x3937e1bb	0.00017536331
219	0xb7235aa0	-9.736657e-06
220	0x389f9112	7.608732e-05
221	0x39363058	0.00017374882
222	0xb76e2574	-1.4194626e-05
223	0x3802c78e	3.1180265e-05
224	0x388c7b78	6.698718e-05
225	0xbc27383d	-0.010206279
226	0xba456f1e	-0.00075315114
227	0xbc813abd	-0.015775079
228	0xbaa09db5	-0.0012254032
229	0xbd6d8432	-0.0579874
230	0xbbb73d4a	-0.005592023
231	0xbd462636	-0.048376285
232	0xbc505b67	-0.0127171045
233	0xba3e157e	-0.00072511274
234	0x336bc8dc	5.4897882e-08
235	0x339fb52a	7.436968e-08
236	0xb436b9d6	-1.7017678e-07
237	0x33cfbb5f	9.673271e-08
238	0xb4571320	-2.0030393e-07
239	0x3424f41a	1.5362494e-07
240	0xb4249926	-1.5329405e-07
241	0xb44bce36	-1.8980867e-07
242	0x3450584e	1.9403635e-07
243	0xbccee638	-0.025256261
244	0xbcb35743	-0.021892196
245	0xbc81126c	-0.015755855
246	0xbcea636a	-0.028611857
247	0x3af1034c	0.0018387823
248	0x3ca3dc35	0.020002464
249	0xbd330c74	-0.043713048
250	0x3aeabc6e	0.001790894
251	0x3d5949f6	0.05304905
252	0x37f8da93	2.9665685e-05
253	0x3b946562	0.0045286873
254	0x3c7bd63f	0.0153709045
255	0x38a13ffb	7.6889955e-05

block_4b_bn_2/batchnorm/sub__91 f4 [1, 80, 1, 1]
0	0x3f0e6e72	0.55637276
1	0xbe0f1860	-0.13974142
2	0x3f15fd5c	0.5858972
3	0xc04732b7	-3.1124704
4	0x3f5c3348	0.8601575
5	0x3ed8cb9f	0.4234285
6	0x3f3529fb	0.7076718
7	0xc06c50cf	-3.6924322
8	0x3f811138	1.008338
9	0xc083c26b	-4.1174827
10	0x3eafe7cc	0.34356534
11	0x3ed7183f	0.42010686
12	0x3f73162c	0.94955707
13	0x3efbb607	0.49162313
14	0x3f794f07	0.9738621
15	0xbe888222	-0.26661783
16	0xbeba907a	-0.36438352
17	0x3f7547b0	0.9581251
18	0xc04b7427	-3.1789644
19	0xbbc1f200	-0.005918741
20	0x3f53015e	0.8242396
21	0x3e371cdc	0.17882103
22	0x403670ff	2.8506467
23	0x3f78855e	0.970785
24	0x3ecb296c	0.3968004
25	0x401a5a40	2.4117584
26	0x40191e66	2.3924804
27	0xc0493902	-3.1441045
28	0x3f253e88	0.6454854
29	0x3f5ccf9f	0.86254305
30	0x3f8f440c	1.1192641
31	0x3f47299e	0.7779788
32	0xc08b056b	-4.3444114
33	0x38ac8000	8.225441e-05
34	0xc02de9b9	-2.7173903
35	0xc0656d23	-3.5847862
36	0xc06571a8	-3.585062
37	0x3eef7813	0.46771297
38	0x3f143961	0.57900053
39	0xbf4196fc	-0.7562101
40	0xc0163b6b	-2.3473766
41	0x3e817562	0.25284868
42	0x3ec0b8c9	0.3764098
43	0xbf8a159f	-1.0787848
44	0x4064c5f0	3.5745811
45	0x3fd5efb1	1.6713773
46	0xc02f9673	-2.7435577
47	0xbe24aa63	-0.16080622
48	0x3f6f6cf9	0.93525654
49	0x3f46ea64	0.777014
50	0x3f91ebb1	1.1400052
51	0x3f840342	1.0313494
52	0x3f536a94	0.825845
53	0x3f319516	0.6936811
54	0xc0788af6	-3.8834815
55	0x3f0ee811	0.55822855
56	0xbcfd6d08	-0.03093578
57	0xbe319c7c	-0.1734485
58	0x3f75b99b	0.95986336
59	0x3dca56cc	0.098798364
60	0x3f11dcde	0.5697764
61	0x3ede09b5	0.4336678
62	0x3d9be648	0.07612282
63	0xc08ebbc6	-4.4604216
64	0x3f309157	0.6897177
65	0xbd1e2581	-0.038609985
66	0xc0214262	-2.5196767
67	0xc0807463	-4.0142074
68	0x3f74c6eb	0.95616025
69	0x40b5d45d	5.6821733
70	0x3ecec188	0.40382028
71	0x4001b49a	2.026648
72	0x3d649218	0.05580339
73	0xc088e2f8	-4.277706
74	0x3ebbcc1a	0.36679155
75	0x3ee4a363	0.44655904
76	0x3f0d9264	0.553015
77	0x3ea214f8	0.31656623
78	0x3f292851	0.6607714
79	0xc08cac45	-4.396029

block_4b_bn_2/batchnorm/mul__90 f4 [1, 80, 1, 1]
0	0x40c367e0	6.10643
1	0x40a4f13e	5.1544485
2	0x3e715adf	0.23569821
3	0x42570188	53.751495
4	0x3ebc7ad9	0.36812475
5	0x3ea42605	0.32060257
6	0x3e1d4521	0.15358402
7	0x42d6455b	107.13546
8	0x41577630	13.466354
9	0x428cd3ae	70.41344
10	0x403d8ca4	2.961709
11	0x3e796f89	0.24358954
12	0x3f0805be	0.5313376
13	0x3e8d3cd6	0.27585477
14	0x4001089a	2.01615
15	0x423679d6	45.61898
16	0x410e9abb	8.912776
17	0x3fcb1b64	1.5867734
18	0x425bd976	54.962364
19	0x3fce5929	1.612096
20	0x3f1b0ff4	0.6057122
21	0x3eb42103	0.35181436
22	0x41a773c1	20.93152
23	0x3f61f6a7	0.88266987
24	0x3ebe83e1	0.3720999
25	0x4103587e	8.209105
26	0x412181ca	10.094187
27	0x42db8cad	109.77476
28	0x3eb03bcf	0.3442063
29	0x417e6f08	15.902107
30	0x40d34b8b	6.6029716
31	0x3f26b87c	0.6512525
32	0x42a1f55d	80.979225
33	0x4076d72a	3.8568826
34	0x42967555	75.229164
35	0x42d7eaaa	107.95833
36	0x41c6edb5	24.866068
37	0x3eafd3df	0.34341332
38	0x3fc64f08	1.5492868
39	0x3c09cb7c	0.008410331
40	0x410a0192	8.625383
41	0x41a80f8a	21.007587
42	0x3e61c661	0.22048332
43	0x40b27e9b	5.577955
44	0x4218b056	38.172203
45	0x40bcd356	5.900798
46	0x42e44c5c	114.14914
47	0x422ec50d	43.692432
48	0x3e8fdfba	0.28100377
49	0x3eeddb5d	0.46456423
50	0x403c1355	2.93868
51	0x3eaaaa58	0.33333087
52	0x3edef6e1	0.4354773
53	0x3f40eab7	0.75358146
54	0x425dd37f	55.45654
55	0x400b2aa4	2.1744776
56	0x3eb16ab9	0.34651735
57	0x423b8999	46.884373
58	0x3f1401db	0.5781533
59	0x3e085b8b	0.13316171
60	0x3f001ecd	0.50047
61	0x3ea1d079	0.31604365
62	0x4086dce8	4.214466
63	0x42af63fe	87.6953
64	0x3ef18a48	0.47175813
65	0x3ff27821	1.894291
66	0x429b89a8	77.76886
67	0x42ffda99	127.92695
68	0x3ea1480f	0.3150029
69	0x4125e8aa	10.369303
70	0x3f46fb46	0.7772716
71	0x412d2447	10.821357
72	0x40722604	3.7835703
73	0x428af061	69.46949
74	0x3e05e76e	0.13076565
75	0x3e426cc7	0.18986808
76	0x403fa805	2.99463
77	0x3f0ec0db	0.55763024
78	0x3fbd49d3	1.4788154
79	0x429f559d	79.66721

block_4b_bn_1/batchnorm/sub__87 f4 [1, 16, 1, 1]
0	0x3e30f758	0.17281854
1	0x3f5c1e5f	0.8598384
2	0x3ebc0fed	0.367309
3	0x3e27c524	0.16383797
4	0x3e47b49c	0.19502491
5	0xbef92d87	-0.48667547
6	0x3f069ea6	0.5258583
7	0xbed67138	-0.41883254
8	0x3d98320b	0.0743142
9	0x3dd2fb0e	0.10301791
10	0x3ea09ac8	0.3136809
11	0xbee2fc7a	-0.4433325
12	0x3f1c60ee	0.610854
13	0x3ed942be	0.42433733
14	0xbef0bcae	-0.4701895
15	0xbf7087f0	-0.93957424

block_4b_bn_1/batchnorm/mul__86 f4 [1, 16, 1, 1]
0	0x3e95d9b7	0.29267666
1	0x3f0d77fb	0.552612
2	0x3e9177d1	0.28411725
3	0x3e529ace	0.20566866
4	0x3ea15e22	0.3151713
5	0x41be5a75	23.794168
6	0x3e5d0726	0.21584758
7	0x41d85f83	27.046637
8	0x3e39eca3	0.18156676
9	0x3ec0fa91	0.37691167
10	0x3e32aaaa	0.17447916
11	0x41dec64b	27.846823
12	0x3e4c2a88	0.199381
13	0x3f9bf800	1.2185059
14	0x3e87d4a2	0.26529413
15	0x3f8b8a10	1.0901508

block_4a_conv_shortcut/kernel/read__78 f4 [80, 56, 1, 1]
0	0xb4808ad2	-2.3942863e-07
1	0x2eef7000	1.0888357e-10
2	0xb463853c	-2.1189493e-07
3	0x347ea7e1	2.3716667e-07
4	0xb483c87f	-2.4546532e-07
5	0x343ef2d0	1.7783464e-07
6	0xb3aea546	-8.1325695e-08
7	0xb4ae7c1f	-3.2500336e-07
8	0xb3830de9	-6.102693e-08
9	0x3482a701	2.4335898e-07
10	0x332a920a	3.971403e-08
11	0x34ac3a67	3.207999e-07
12	0x32d3a7a8	2.4639874e-08
13	0xb46097c9	-2.0916845e-07
14	0x340b24a0	1.2958708e-07
15	0xb463bf27	-2.1210563e-07
16	0xb32bf54e	-4.0037143e-08
17	0x344a7a05	1.8857106e-07
18	0x337134e4	5.616029e-08
19	0xb42de786	-1.6196108e-07
20	0x341e062e	1.4717145e-07
21	0x34866b47	2.50375e-07
22	0xb32f3e58	-4.0802064e-08
23	0xb47ac25c	-2.3353772e-07
24	0x347fd8a1	2.3827535e-07
25	0xb249f5a2	-1.175559e-08
26	0xb2abfb70	-2.002136e-08
27	0x342c3abd	1.6040117e-07
28	0x33cb403e	9.46461e-08
29	0x3463b51c	2.120691e-07
30	0xb3713fd4	-5.6170236e-08
31	0x32c8bc21	2.3368615e-08
32	0x336477a4	5.31942e-08
33	0x332949aa	3.9415376e-08
34	0xb483987f	-2.4511607e-07
35	0x339622b2	6.99123e-08
36	0x33c0c7cc	8.9770396e-08
37	0x353e2a1f	7.084181e-07
38	0x33c9002c	9.359823e-08
39	0xb314926b	-3.45921e-08
40	0x3324248a	3.8217458e-08
41	0x33c15e54	9.004421e-08
42	0xb44b8b86	-1.8956607e-07
43	0xb481b057	-2.4156427e-07
44	0x32481362	1.1645939e-08
45	0x3286e720	1.5704757e-08
46	0x3482ed65	2.4387114e-07
47	0xb41d6b2e	-1.4660756e-07
48	0xb338055c	-4.2845713e-08
49	0xb3deba51	-1.0371571e-07
50	0xb29c34e1	-1.8184837e-08
51	0x3421f036	1.5081682e-07
52	0x33d3499b	9.838842e-08
53	0xb3c3bef3	-9.1151286e-08
54	0x3324d4aa	3.8377642e-08
55	0x33f0160b	1.11798805e-07
56	0xb323016c	-3.7952688e-08
57	0xb4c23790	-3.6175743e-07
58	0x33c20e7c	9.036464e-08
59	0xb3ff030e	-1.18749185e-07
60	0x33af13de	8.152686e-08
61	0x3485df09	2.493546e-07
62	0xb1f79740	-7.2058413e-09
63	0x34c2cc8e	3.628415e-07
64	0xb4217de2	-1.504009e-07
65	0xb3c7a05e	-9.29583e-08
66	0xb1b7be4c	-5.3476352e-09
67	0x31b5cf4c	5.2913602e-09
68	0x3257c872	1.2560223e-08
69	0xb3d88b06	-1.0083572e-07
70	0x325faf82	1.3020214e-08
71	0x34874db7	2.5202255e-07
72	0x34c4c604	3.665192e-07
73	0x31a9dccc	4.943649e-09
74	0xb2bbe4a0	-2.1873632e-08
75	0xb474c547	-2.279604e-07
76	0xb34c6248	-4.7586838e-08
77	0x328ee100	1.6633294e-08
78	0x34262f0a	1.5477067e-07
79	0xb2dc08e8	-2.5615421e-08
80	0xb421a5e6	-1.5054647e-07
81	0xb4b6d214	-3.4052994e-07
82	0x34860907	2.4966013e-07
83	0x3326140e	3.8668126e-08
84	0xb24cbb94	-1.1917013e-08
85	0x345d63fe	2.0618606e-07
86	0x34201a5e	1.4910754e-07
87	0x33ca5e14	9.423471e-08
88	0xb3657d30	-5.3432075e-08
89	0xb25b31b2	-1.2758777e-08
90	0x34863d09	2.5003854e-07
91	0xb371a7c4	-5.6264767e-08
92	0xb3e100f9	-1.0477556e-07
93	0xb41ddb2e	-1.4701502e-07
94	0x34c2ef92	3.6309626e-07
95	0xb485c189	-2.4913996e-07
96	0x3286d5a0	1.5696799e-08
97	0xb3a58f01	-7.7094235e-08
98	0x33c7b4cc	9.2995464e-08
99	0xb47cdcb1	-2.3549616e-07
100	0xb32d45aa	-4.034306e-08
101	0x341bf412	1.4524292e-07
102	0x3464eb38	2.1319727e-07
103	0x329ba281	1.8118273e-08
104	0x33aeb21a	8.134903e-08
105	0x33649bca	5.3227076e-08
106	0x34e2aea8	4.222286e-07
107	0x34e07a14	4.1812075e-07
108	0x347dfce9	2.365447e-07
109	0x33631566	5.2872018e-08
110	0x34a9cf09	3.162934e-07
111	0x337159c4	5.6193826e-08
112	0x326086c2	1.3069156e-08
113	0x34c157dc	3.6012977e-07
114	0x3333e860	4.188803e-08
115	0xb47ec5f5	-2.372761e-07
116	0x34269b1a	1.551638e-07
117	0xb4c9e9b8	-3.760922e-07
118	0x346105f6	2.0956927e-07
119	0x3420e7e6	1.4985525e-07
120	0x34b6fc14	3.4083553e-07
121	0xb4c503dc	-3.6696918e-07
122	0xb39fcd0a	-7.441311e-08
123	0x33f1d20f	1.12606465e-07
124	0xb382c483	-6.089342e-08
125	0xb4c586e8	-3.6792267e-07
126	0x33e1ff79	1.0523849e-07
127	0xb4591786	-2.0218258e-07
128	0xb42998e6	-1.5794976e-07
129	0x345b0e00	2.0401058e-07
130	0x3485c289	2.4914723e-07
131	0x34cb87d6	3.791053e-07
132	0x34647da0	2.1279857e-07
133	0x332c8122	4.0164316e-08
134	0xb3c61c48	-9.225238e-08
135	0xb32303d2	-3.795487e-08
136	0x342185e2	1.5043e-07
137	0xb32d092a	-4.0288036e-08
138	0xb431cade	-1.6558212e-07
139	0xb485f787	-2.495328e-07
140	0x339d70e1	7.331415e-08
141	0x341b3fbe	1.4458689e-07
142	0xb406bba2	-1.2547983e-07
143	0xb1ad224c	-5.0388618e-09
144	0xb328575a	-3.9194994e-08
145	0xb44772e0	-1.857511e-07
146	0xb4c43b16	-3.6550836e-07
147	0x33b5c746	8.464717e-08
148	0x339a0c21	7.17339e-08
149	0xb4ae7002	-3.2491522e-07
150	0xb3feb496	-1.1860645e-07
151	0xb1b93ccc	-5.3911204e-09
152	0xb372f6c4	-5.6569448e-08
153	0xb4e210b4	-4.2107933e-07
154	0x31ae600c	5.0749858e-09
155	0xb1bdf070	-5.5279585e-09
156	0x33d2d386	9.817363e-08
157	0x339f728a	7.424849e-08
158	0x32aadd80	1.9891331e-08
159	0xb2958d8c	-1.7410251e-08
160	0x34241536	1.5281407e-07
161	0xb3a7fe9c	-7.822857e-08
162	0xb3efe32f	-1.1170629e-07
163	0x34c2ea92	3.6305988e-07
164	0xb3ee0a94	-1.1084663e-07
165	0xb3d35c85	-9.8422824e-08
166	0x332a32f2	3.9627544e-08
167	0xab1a0000	-5.471179e-13
168	0xbce72e17	-0.02822022
169	0x33bde060	8.841812e-08
170	0x3e0371d3	0.12836389
171	0xb8f16e50	-0.00011512323
172	0xbca1deb5	-0.019759515
173	0x3b22abf8	0.002482174
174	0xbb1e2ce9	-0.0024135655
175	0x344459d2	1.8286599e-07
176	0xbbf26e02	-0.007398368
177	0x3dcaf462	0.099098936
178	0xbc62e986	-0.013849622
179	0xb9ea77f6	-0.00044721336
180	0x3c135bd1	0.008994059
181	0xbdb793b5	-0.0896372
182	0x33741bf8	5.6836114e-08
183	0x3bf35a58	0.0074265413
184	0x38038580	3.1357165e-05
185	0x37be738b	2.2703569e-05
186	0x3c5ea72c	0.013589662
187	0x33a2f9e6	7.589169e-08
188	0x3c35e41f	0.011101752
189	0x393edf8e	0.00018203093
190	0xb81bcf1a	-3.7147758e-05
191	0xbcf17607	-0.029475225
192	0xb88975a0	-6.5545784e-05
193	0x3ba83615	0.0051334
194	0x3d8690b6	0.0657057
195	0xba0f024f	-0.0005455361
196	0x3ccd0b5c	0.02502983
197	0x3dbb3dc4	0.0914264
198	0x3cff349a	0.031153012
199	0x3e8054f0	0.25064802
200	0x3d897b72	0.067129984
201	0xbd4ab572	-0.049489446
202	0xbcd4a557	-0.025957746
203	0x3bafb68d	0.005362338
204	0x365ef386	3.3222327e-06
205	0x3a2c7dba	0.0006580014
206	0xbd827e8c	-0.06371793
207	0x3e94ed96	0.29087514
208	0xb998862b	-0.00029091662
209	0x39f9a534	0.00047616067
210	0xbce7103f	-0.028205989
211	0x3a8d0795	0.0010759706
212	0xbbabed05	-0.005246761
213	0x3d9bc5c7	0.076060824
214	0x3ac59505	0.0015074319
215	0xbb589919	-0.0033050238
216	0xbc8f0da3	-0.017462557
217	0x3b05f4d4	0.0020440118
218	0xbc8b8c7c	-0.017034762
219	0xb88b85fe	-6.6529945e-05
220	0x3b69a789	0.0035652837
221	0xb8172f8e	-3.6045494e-05
222	0xbac32d43	-0.0014890808
223	0x3b0b0a6f	0.0021215936
224	0xb3ac005e	-8.009441e-08
225	0x325dff72	1.2921975e-08
226	0x34230136	1.5180999e-07
227	0x347283f3	2.2586009e-07
228	0xb3f0a195	-1.12052625e-07
229	0xb421ed36	-1.508059e-07
230	0x33a449bd	7.650258e-08
231	0xae90f400	-6.591705e-11
232	0x34c96bcc	3.75176e-07
233	0x353e7421	7.0949505e-07
234	0x33c616bb	9.224228e-08
235	0x33ad8914	8.0808746e-08
236	0x33feed6e	1.1870985e-07
237	0x32386b62	1.0734626e-08
238	0xb4ca1eb4	-3.7647771e-07
239	0x34432159	1.8172922e-07
240	0x3485b607	2.4905623e-07
241	0x329be301	1.8147604e-08
242	0x33afc796	8.185377e-08
243	0xb36a36a1	-5.4532055e-08
244	0x33c27ad4	9.056171e-08
245	0xb48692b2	-2.506618e-07
246	0x32d28384	2.4507024e-08
247	0xb32ba172	-3.9960874e-08
248	0xb3ea5c42	-1.0913256e-07
249	0xb371635c	-5.6202552e-08
250	0xb4478762	-1.8582571e-07
251	0xb3df087c	-1.038579e-07
252	0x332a8908	3.970584e-08
253	0x33f1cd2f	1.125976e-07
254	0xb37ae317	-5.8414198e-08
255	0xb3c13960	-8.997699e-08

block_4a_conv_shortcut/bias/read__79 f4 [80]
0	0xb3aad25d	-7.954507e-08
1	0x3459f457	2.029859e-07
2	0x34c963cc	3.751178e-07
3	0xb3cddb43	-9.58594e-08
4	0xb41c6f54	-1.4569133e-07
5	0x34b01d1a	3.280373e-07
6	0xb46c5aaa	-2.2012196e-07
7	0x34ad3cb1	3.226792e-07
8	0x343dd590	1.767969e-07
9	0x33cf8ddc	9.664993e-08
10	0xb3c0acbc	-8.972117e-08
11	0xb36ec506	-5.5592885e-08
12	0x34237032	1.5221374e-07
13	0x344c06f6	1.9001513e-07
14	0xb4598810	-2.0259199e-07
15	0xb422b42e	-1.5152975e-07
16	0xb459ab16	-2.027194e-07
17	0xb39f6fca	-7.424349e-08
18	0x321a17c0	8.96938e-09
19	0x34c3cf64	3.6472477e-07
20	0x34841fb9	2.4609997e-07
21	0xb425f11e	-1.545454e-07
22	0x33bbe0d0	8.748759e-08
23	0xb34af868	-4.7257714e-08
24	0x348c611a	2.6147683e-07
25	0xb48f4844	-2.6688406e-07
26	0xb406868b	-1.2528669e-07
27	0xb35cff43	-5.14549e-08
28	0x34811399	2.4042382e-07
29	0x339410e4	6.8948594e-08
30	0x32caa7e0	2.3592236e-08
31	0x326dc640	1.38402925e-08
32	0xb2a113cc	-1.875187e-08
33	0x32a57b68	1.9264647e-08
34	0x33883b28	6.343754e-08
35	0xb420e2ac	-1.4983624e-07
36	0xb4add8a5	-3.238139e-07
37	0xb3fec8b6	-1.1864306e-07
38	0x32a1d0a1	1.883774e-08
39	0x3301107e	3.0050153e-08
40	0xb4131f70	-1.3701879e-07
41	0x3420c6e2	1.4973514e-07
42	0x32aa52f0	1.982832e-08
43	0xb3df702b	-1.040465e-07
44	0x336bc8cc	5.4897825e-08
45	0xb42063e2	-1.4937498e-07
46	0x333fb406	4.4634383e-08
47	0x31a7efcc	4.8876014e-09
48	0x330ca733	3.2748357e-08
49	0x34ae53aa	3.24709e-07
50	0xb3ac766e	-8.0309164e-08
51	0x34675f53	2.154823e-07
52	0x332bf24e	4.0034415e-08
53	0xb3d4d3fb	-9.910578e-08
54	0x32a60af8	1.9329931e-08
55	0xb41f7982	-1.4852233e-07
56	0xb2cb2788	-2.3650287e-08
57	0xb4c6c584	-3.7024085e-07
58	0xb3c81f1e	-9.318886e-08
59	0x34148c14	1.3834534e-07
60	0xb3949321	-6.9185496e-08
61	0x320c1268	8.153258e-09
62	0xb3cf3063	-9.64799e-08
63	0x34210f1c	1.499979e-07
64	0xb32b6186	-3.9902737e-08
65	0x31a7354c	4.866399e-09
66	0xb32a82a8	-3.970004e-08
67	0xb47cff3a	-2.356218e-07
68	0xb509a7f4	-5.128088e-07
69	0x350afb9d	5.177515e-07
70	0x34c75892	3.7131082e-07
71	0xb2b56c30	-2.1120371e-08
72	0xb480d5e3	-2.399748e-07
73	0xb4208d90	-1.4952661e-07
74	0x33afa306	8.178726e-08
75	0xb421ca3a	-1.5067863e-07
76	0xb4984974	-2.836565e-07
77	0x3475d5d7	2.2895198e-07
78	0xb4602393	-2.0874567e-07
79	0x33e3c07c	1.0605524e-07
